Grav_Bird/trained_q_agent.pth (torch, 5143 bytes, 6 tensors)

0.weight f4 [32, 4]
00000000: 22fb 98be 4020 6cbc 686e d6be 2cd4 3dbe
00000010: f4d6 ddbe d41f babe 94a7 f4be 4876 b6be
00000020: 6570 86bd 6bc6 53c1 f142 08bf 93e4 3ebe
00000030: cb06 0b3d 4098 00c1 152d 00bf d072 ba3e
00000040: 4198 eb3b 0648 11c1 8a54 edbe c763 06bf
00000050: b266 dbbd 2f4d dfc0 cd73 693f 4bfb f5bd
00000060: fcc9 dabb 76f9 36c1 f396 abbf 7029 263e
00000070: d8a4 c43a 7f50 adbf 8b18 81bd 33b7 33be
00000080: 0265 913d 08c4 e73f e7a8 9fc0 3546 d53e
00000090: 626c a6be a286 d03e 8c40 3dbe d014 63bd
000000a0: b375 a6be ade3 9040 05f5 053f d13f be3d
000000b0: 7b59 13bf 5e3a f43c f005 843c 3d00 b6bd
000000c0: 0113 ccbd 3b33 74c0 456c 4d3e 1a21 eebf
000000d0: b909 f5bf 303b 27c1 dc08 80bf 645d 523f
000000e0: a6d7 e3be 60ec 4cbe 5c57 b9be f071 06be
000000f0: e173 bf3d d55f 2ec0 7da6 6d3f e852 70be
00000100: cf12 1ebd a064 2ebe 6df5 3fbf bbc2 ce3e
00000110: 34b4 6dbe ca0f 943e 5cf5 a33e c43c bbbe
00000120: 7268 57bc 11a0 8c40 8189 843f c1e0 36c0
00000130: 2338 e9be b51e 31c0 9268 fd3e 4ac5 cf3e
00000140: 5580 b3be 6225 b9bd 5b9b 6f3f 7c15 393f
00000150: 7605 b3bd a0ec 30c1 7559 cdbe cca0 9a3e
00000160: 4815 e8be a478 e53e 76c8 b5be 4062 87bc
00000170: e57c 3cbc 2b85 1d41 ccc4 e2be 609f c1bc
00000180: 149c 82be 6e77 9b3e 76ef b6be 88aa f5be
00000190: d636 a3be 80e1 913e 3eb9 a9be 48d9 0dbe
000001a0: 4077 41be 561b ca3e 945b cfbe 28b7 dbbd
000001b0: f66f e13b b00f 05c0 9b65 2fc1 d318 6a3e
000001c0: 39c5 1dbd 9b63 c2bf 504f d9bc 107c d3bd
000001d0: ece5 82bf 9c8f 3d40 11b0 2abf 1ed9 653f
000001e0: 6815 74be 48c8 d1bf e31b 8bbf 9e6f 363f
000001f0: 362c e3bd 9be8 39c0 9bda 01bd 796c 8cbe
-0.298791 -0.014411986 -0.41881108 -0.18537968 -0.4332806 -0.36352408 -0.47784102 -0.35637116
-0.06564406 -13.235942 -0.53227144 -0.18641882 0.033942025 -8.03717 -0.5006879 0.3641572
0.007189781 -9.080084 -0.4635356 -0.52496 -0.10712947 -6.978172 0.9119232 -0.12010821
-0.0066769104 -11.435904 -1.3405441 0.16226745 0.001500274 -1.354019 -0.06303509 -0.17550354
0.07099344 1.8106699 -4.989368 0.41655126 -0.32504565 0.40727717 -0.18481654 -0.05543977
-0.32511672 4.5277925 0.52326995 0.09289516 -0.5755841 0.029812988 0.016116112 -0.08886764
-0.09964562 -3.8156269 0.20060833 -1.8603852 -1.9143592 -10.45195 -1.0002704 0.8217375
-0.44500464 -0.20012045 -0.36199462 -0.13129401 0.09348274 -2.7245991 0.92832166 -0.23469126
-0.038592156 -0.17030573 -0.74983865 0.40382943 -0.23213273 0.28918296 0.32023132 -0.36569798
-0.01314746 4.3945394 1.0354463 -2.857468 -0.4555064 -2.7674992 0.49493843 0.40580207
-0.35058847 -0.09040333 0.9359643 0.7229841 -0.08741276 -11.05777 -0.40107313 0.30200803
-0.45328736 0.44818604 -0.35504502 -0.016526341 -0.011504387 9.845012 -0.4429077 -0.023635566
-0.25509703 0.30364555 -0.3572957 -0.47981668 -0.31877774 0.28492355 -0.3314914 -0.13852417
-0.18893147 0.3947398 -0.40499556 -0.10728294 0.006879802 -2.0790825 -10.962306 0.22861032
-0.038518164 -1.5186647 -0.026527077 -0.103263974 -1.0226417 2.9618902 -0.66674906 0.8978442
-0.23836291 -1.6389246 -1.0867885 0.71264064 -0.11092417 -2.904822 -0.03170262 -0.27426508

0.bias f4 [32]
00000000: 8caa 8a3e 308c 2dbe c5c4 7e40 a45e c6c1
00000010: 4940 a63f 478f 24c1 888e f0c1 31e7 2f42
00000020: ec48 8dc1 7c2a 8e3e c8a1 cf41 8f27 6abe
00000030: 9692 2341 306d a0c0 06fc 923e 657b 9640
00000040: 5655 d941 889b fabd 1cb4 b1c0 40f4 17c1
00000050: 9e58 78c1 58dd 93c1 480e d23e d5fa 9e41
00000060: 20a3 353d 527d 8a3e b842 ae3d b8be b43f
00000070: 20da 1a40 7ea3 6fc0 69d2 c9c1 73f7 82c0
0.27083242 -0.16948009 3.9807599 -24.796211 1.2988368 -10.28498 -30.069595 43.975773
-17.660606 0.27766788 25.953995 -0.22866653 10.223288 -5.0133286 0.28707904 4.702563
27.166668 -0.122366965 -5.553236 -9.497131 -15.521635 -18.483078 0.4102652 19.872477
0.04434502 0.27048737 0.08508819 1.4120703 2.4195633 -3.7443538 -25.22774 -4.092706

2.weight f4 [16, 32]
00000000: 9c51 c5bd 7cb9 5a3d b7d8 b2bf 895a 0f3f
00000010: 24df c23e cf07 c63e 8670 553f 31ff 87c0
00000020: 6f05 383f 820e 34be 31dd 983e e0f0 413e
00000030: a3aa aec0 80aa fdbe d23f 9bbd 4c97 93bd
00000040: a0a6 c93c 4059 9c3b 4552 8fbf 6a3d 483f
00000050: fb81 07bf 94f8 0a3f e6dc af3d 0b46 03c0
00000060: 5463 30bd fac0 dcbd 9023 1e3c a2d7 c8be
00000070: fb6a f9bd c5e3 14be 0f97 123f 9a1b 5a3e
00000080: 767f eb3d 50c0 18bd 4610 c53f a000 7b3e
00000090: c575 183f 9197 fabe 036d 29bf 1261 163f
000000a0: 328e abbe 37c8 103e 10ee e93e a5f6 573e
000000b0: 018c 1e3e 6157 01be 5834 813c 63b3 e33e
000000c0: 57b2 6cbe 865d 913d 1987 aebe 5ecb 5dbe
000000d0: f985 babd b69e b63e 82fa f33d abe8 623f
000000e0: a1f7 163e 9c3b 213d 40e8 833d 5c42 c9bd
000000f0: 39e9 7d3d 4e5d 413f 4f38 453e 871e e9bd
00000100: 8f59 1e3e c2bb ce3d f874 6c3f 9af1 cc3d
00000110: 93c3 a13e aa40 ffbe cae4 47c0 61f3 f13f
00000120: 0cfb b3be 2ad1 71bd 113d ab3e 10ff fd3c
00000130: 48d0 d6be 61f3 91bf 289d 743d ede1 7f3d
00000140: 595e aa3f 9e26 0cbe d228 96c0 a918 18bf
00000150: ff03 b6be 6f57 a53d d014 a73c bc65 243f
00000160: 1a40 f2bd 48ae 863d 5e0f e03d 1a7f cabf
00000170: a0e8 b2bc 6907 843e aa0c 903e bdaa 023f
00000180: 4a3f 95bd f087 ff3c 9c53 67bf 33bb a0bd
00000190: 7741 243f 07c4 1e3c 8f2f 703f e5e5 d33f
000001a0: 3b93 d33d 0a8d 913d c55f 83bf e136 2d3e
000001b0: baa8 e63e 0c9c 38c1 025e 0dbe fba9 0fbe
000001c0: 0164 58be 6f9c 92bd 9b8a 5ac0 1038 e73c
000001d0: 8bb2 79be 94e6 363e c0ed 183b 9ff3 e0bf
000001e0: 846b 3bbd 4c20 16be 5647 73bd 70d2 023f
000001f0: fbf5 033e 2fc5 e1be 3977 5f3e f4f6 663e
00000200: a49c 683d 1feb 263e 2142 1bbe 7b6a 98bd
00000210: 73c3 ae3c a847 87bc 9411 62bd 50cc 253d
00000220: ea21 d83d df2f 87bd 0342 b0bd e07b 4dbc
00000230: e213 de3d 1ece a7bd 4dce 13be f6b0 03be
00000240: 7b6a 56be da21 0dbe ba9a 1fbe c252 1cbe
00000250: 488f 2bbd c07b 50bd 6ab2 31be e936 36be
00000260: f8d3 a83c 34db 873d a0d1 ebbc 8570 0ebe
00000270: a2e4 bdbd 68f5 103d a0ef 4ebd 6de9 f93d
00000280: e570 f8bd 4b52 1bbe e8d1 5abe 55df 5fbd
00000290: 9632 08be 1426 bdbd 30fb 923d c8eb 61be
000002a0: 4dc3 efbd d27a ca3d d619 3abd e572 1bbd
000002b0: fe3a 083d 047a cb3d 4afa a43d 181c 86bd
000002c0: 4b86 79be a2c6 08be 2c8b 36be d7c4 b53d
000002d0: 3005 6bbe 1fcd 6b3d 942e 4f3d f177 fcbd
000002e0: 903f a4bd 0c93 953d e536 323e 28e9 c2bc
000002f0: fad9 46be 70eb a33d 1a29 49bc 0534 58be
00000300: d74a 28be f516 0f3e 99a4 88c0 593e b8c0
00000310: 1c62 cb3e 1ca2 1d3e 72bc dc3e a8be 24c0
00000320: 0acb 2cc0 4099 36bc 58b8 a9be 7b71 f3bd
00000330: d54a 563d 1c40 46c0 a6f7 d83d fd77 41be
00000340: 1637 23bf 00c7 abbc 4345 ec3d 6f1d b0be
00000350: b12b 323d 308e 05c1 51af 2abe 8db5 f7be
00000360: 6925 0e3e 00e2 c7bb 1996 1e3e 7d8c 793d
00000370: 7c57 1bbd ac43 a0bf ecc9 debf 309b 2d3f
00000380: 0059 693b 08d2 573d 87dc 07bd dd05 843f
00000390: 0d08 43bf d666 8bc0 5969 37bf 9bb8 34c1
000003a0: 3ead 2bbf 5b3b c5bd fd09 86be ab02 94bd
000003b0: dbac 15be f81d 4cbf 6221 24be d40b e7bf
000003c0: 9376 1d3f 5254 923d b931 34c0 14a5 27bb
000003d0: dac6 16bf e650 153e da5d fb3d 93d8 3bbf
000003e0: a6c7 843d 67ef 033e 2080 bb3b 35a5 00bf
000003f0: 19ff a63d 55aa 82bd 31eb 6a3f ea6c 0cbe
-0.096347064 0.053399548 -1.3972386 0.5599752 0.38060868 0.38677832 0.8337482 -4.2499013
0.7188329 -0.1758366 0.29856256 0.18939543 -5.4583297 -0.49544144 -0.07580532 -0.07206592
0.024615586 0.0047713816 -1.1196982 0.7821871 -0.5293271 0.5428555 0.08587055 -2.05115
-0.043063477 -0.10778995 0.009652033 -0.39227015 -0.12178608 -0.14540012 0.5726175 0.21299592
0.114989206 -0.03729278 1.5395591 0.24511957 0.595547 -0.4894376 -0.66181964 0.5874187
-0.33506924 0.14138876 0.4568944 0.21090181 0.15483095 -0.12630989 0.01577203 0.444728
-0.23114906 0.07097916 -0.34087446 -0.2165961 -0.091075845 0.35667962 0.11913015 0.88636273
0.147429 0.03936349 0.064407825 -0.0982711 0.061989997 0.75532997 0.19259761 -0.11382776
0.15463851 0.10094406 0.9236598 0.10007019 0.31594524 -0.49854022 -3.1233392 1.8902398
-0.3515247 -0.059037365 0.33445027 0.031005412 -0.4195578 -1.1402398 0.05972019 0.06247132
1.3310043 -0.13686606 -4.692483 -0.5941263 -0.35549924 0.08073317 0.020395666 0.64217734
-0.11828633 0.0657621 0.10940431 -1.5820038 -0.02183944 0.25786904 0.28134662 0.51041776
-0.07287462 0.03119275 -0.9036195 -0.078482054 0.6416239 0.009690291 0.9382257 1.6554533
0.10330816 0.07106979 -1.0263602 0.16915466 0.45050603 -11.538097 -0.13805392 -0.14029686
-0.21131898 -0.071587436 -3.4147098 0.028224975 -0.24384515 0.17861396 0.002333507 -1.7574347
-0.04575683 -0.14660758 -0.059394203 0.5110235 0.12886803 -0.44095752 0.21822824 0.22555143
0.05679001 0.16300629 -0.15161945 -0.074421845 0.021333432 -0.01651366 -0.055192545 0.04047805
0.105533436 -0.066009276 -0.08606341 -0.012541741 0.10843636 -0.081936106 -0.14434166 -0.12860474
-0.20939057 -0.13782445 -0.15586367 -0.15265945 -0.04188469 -0.050899267 -0.17353216 -0.17794384
0.020608887 0.066336066 -0.02878648 -0.1391011 -0.09272124 0.035390288 -0.050521493 0.122027256
-0.12130908 -0.15168111 -0.21369135 -0.054656345 -0.13300547 -0.092357785 0.071768165 -0.220626
-0.117071725 0.09886707 -0.045434795 -0.03795137 0.033259384 0.09935382 0.08055551 -0.06548327
-0.24367635 -0.13357022 -0.17826527 0.08875435 -0.22951198 0.057568666 0.05058153 -0.123275645
-0.08019936 0.073034376 0.17403753 -0.023792818 -0.19419089 0.080038905 -0.012277866 -0.21113594
-0.16434799 0.13973601 -4.2700925 -5.757611 0.3972329 0.15393871 0.43112522 -2.5741367
-2.6998925 -0.011144936 -0.33148456 -0.11886879 0.05231746 -3.097663 0.1059411 -0.18893428
-0.6375593 -0.020968914 0.11536648 -0.34397456 0.0434987 -8.347214 -0.1666844 -0.483807
0.13881458 -0.0060999393 0.15486945 0.060924996 -0.03792523 -1.2520652 -1.7405372 0.6781492
0.0035606027 0.052690536 -0.033169296 1.0314289 -0.7618416 -4.356303 -0.7164512 -11.29507
-0.6706122 -0.09630462 -0.26179495 -0.072270714 -0.1461672 -0.7973323 -0.1602836 -1.8050485
0.61509055 0.07144989 -2.8155348 -0.0025580572 -0.58897173 0.14581642 0.1227376 -0.7337734
0.064833924 0.12884293 0.005722061 -0.50252086 0.08154125 -0.063801445 0.91765124 -0.13713422

2.bias f4 [16]
00000000: 6efa 93c1 fb7e 30c1 219a ee40 9637 3dc1
00000010: 5f97 663c a1cc 7bbe dd96 ddc0 dc86 9ac1
00000020: 58fd 01c0 ec40 bec0 23c7 cbbd 4a94 2d41
00000030: 2680 65be 2985 8cc0 c7b8 debd b0e8 bd41
-18.49728 -11.031001 7.4563146 -11.826071 0.014074176 -0.24589778 -6.924666 -19.31585
-2.0310879 -5.945425 -0.09950092 10.848703 -0.22412166 -4.391255 -0.10875087 23.738617

4.weight f4 [2, 16]
00000000: aaab 1bbe 0fbd 1bbe 95ca 343e 6909 02be
00000010: 21b4 013e b587 bf3c c637 e8bd b7e1 65be
00000020: 8fd9 203e bb1f a0bd 50db 353b a3df 79be
00000030: 5df6 093e 7116 013e e950 5a3e d068 00bc
00000040: 0b33 aabc b005 563d dee7 16bc 5216 dabc
00000050: eb76 2f3e 6e05 26bd 7029 e3bb d6f7 8f3c
00000060: 5928 2fbc efeb 1c3e e8ef 15be 8823 a7be
00000070: 8010 3f3d 099d ca3d 91da 3c3e b072 a9be
-0.15202203 -0.15208839 0.17655404 -0.12698902 0.1266637 0.02338014 -0.11338763 -0.22449385
0.15707992 -0.07818552 0.0027749129 -0.24401717 0.13472886 0.12606217 0.21319927 -0.007837489
-0.020776292 0.052251518 -0.009210555 -0.026621971 0.17135207 -0.040532522 -0.00693243 0.017574232
-0.010690772 0.15324377 -0.14642298 -0.32644296 0.046646595 0.09893233 0.18442751 -0.33095312

4.bias f4 [2]
00000000: f074 60bf b213 d5c0
-0.8767843 -6.658654
